2020-12-07 16:18:24,170 - test - INFO - LeNet(
  (conv1): Conv2d(1, 10, kernel_size=(5, 5), stride=(1, 1))
  (conv2): Conv2d(10, 20, kernel_size=(5, 5), stride=(1, 1))
  (conv2_drop): Dropout2d(p=0.5, inplace=False)
  (fc1): Linear(in_features=320, out_features=50, bias=True)
  (fc2): Linear(in_features=50, out_features=10, bias=True)
)
2020-12-07 16:18:24,170 - test - INFO - Loading model: None ...
2020-12-07 16:28:01,304 - test - INFO - LeNet(
  (conv1): Conv2d(1, 10, kernel_size=(5, 5), stride=(1, 1))
  (conv2): Conv2d(10, 20, kernel_size=(5, 5), stride=(1, 1))
  (conv2_drop): Dropout2d(p=0.5, inplace=False)
  (fc1): Linear(in_features=320, out_features=50, bias=True)
  (fc2): Linear(in_features=50, out_features=10, bias=True)
)
2020-12-07 16:28:01,304 - test - INFO - Loading model: saved/Mnist_LeNet/0/model/model_best.pth ...
2020-12-07 16:29:13,865 - test - INFO - LeNet(
  (conv1): Conv2d(1, 10, kernel_size=(5, 5), stride=(1, 1))
  (conv2): Conv2d(10, 20, kernel_size=(5, 5), stride=(1, 1))
  (conv2_drop): Dropout2d(p=0.5, inplace=False)
  (fc1): Linear(in_features=320, out_features=50, bias=True)
  (fc2): Linear(in_features=50, out_features=10, bias=True)
)
2020-12-07 16:29:13,865 - test - INFO - Loading model: saved/Mnist_LeNet/0/model/model_best.pth ...
2020-12-07 16:29:16,266 - test - INFO - {'loss': 0.3544044117927551, 'accuracy': 0.908875, 'top_k_acc': 0.985625}
